node {
  name: "x1"
  op: "Placeholder"
  attr {
    key: "dtype"
    value {
      type: DT_FLOAT
    }
  }
  attr {
    key: "shape"
    value {
      shape {
        dim {
          size: -1
        }
        dim {
          size: 240
        }
        dim {
          size: 1
        }
      }
    }
  }
}
node {
  name: "encoder_1/conv1d_1/convolution/ExpandDims/dim"
  op: "Const"
  attr {
    key: "dtype"
    value {
      type: DT_INT32
    }
  }
  attr {
    key: "value"
    value {
      tensor {
        dtype: DT_INT32
        tensor_shape {
        }
        int_val: -3
      }
    }
  }
}
node {
  name: "encoder_1/conv1d_1/convolution/ExpandDims_1/ReadVariableOp/resource"
  op: "Const"
  attr {
    key: "dtype"
    value {
      type: DT_FLOAT
    }
  }
  attr {
    key: "value"
    value {
      tensor {
        dtype: DT_FLOAT
        tensor_shape {
          dim {
            size: 7
          }
          dim {
            size: 1
          }
          dim {
            size: 16
          }
        }
        tensor_content: "…"
      }
    }
  }
}
node {
  name: "encoder_1/conv1d_1/convolution/ExpandDims_1/dim"
  op: "Const"
  attr {
    key: "dtype"
    value {
      type: DT_INT32
    }
  }
  attr {
    key: "value"
    value {
      tensor {
        dtype: DT_INT32
        tensor_shape {
        }
      }
    }
  }
}
node {
  name: "encoder_1/conv1d_1/Reshape/ReadVariableOp/resource"
  op: "Const"
  attr {
    key: "dtype"
    value {
      type: DT_FLOAT
    }
  }
  attr {
    key: "value"
    value {
      tensor {
        dtype: DT_FLOAT
        tensor_shape {
          dim {
            size: 16
          }
        }
        tensor_content: "…"
      }
    }
  }
}
node {
  name: "encoder_1/conv1d_1/Reshape/shape"
  op: "Const"
  attr {
    key: "dtype"
    value {
      type: DT_INT32
    }
  }
  attr {
    key: "value"
    value {
      tensor {
        dtype: DT_INT32
        tensor_shape {
          dim {
            size: 3
          }
        }
        tensor_content: "\001\000\000\000\001\000\000\000\020\000\000\000"
      }
    }
  }
}
node {
  name: "encoder_1/conv1d_1_2/convolution/ExpandDims/dim"
  op: "Const"
  attr {
    key: "dtype"
    value {
      type: DT_INT32
    }
  }
  attr {
    key: "value"
    value {
      tensor {
        dtype: DT_INT32
        tensor_shape {
        }
        int_val: -3
      }
    }
  }
}
node {
  name: "encoder_1/conv1d_1_2/convolution/ExpandDims_1/ReadVariableOp/resource"
  op: "Const"
  attr {
    key: "dtype"
    value {
      type: DT_FLOAT
    }
  }
  attr {
    key: "value"
    value {
      tensor {
        dtype: DT_FLOAT
        tensor_shape {
          dim {
            size: 7
          }
          dim {
            size: 16
          }
          dim {
            size: 32
          }
        }
        tensor_content: "…"
      }
    }
  }
}
node {
  name: "encoder_1/conv1d_1_2/convolution/ExpandDims_1/dim"
  op: "Const"
  attr {
    key: "dtype"
    value {
      type: DT_INT32
    }
  }
  attr {
    key: "value"
    value {
      tensor {
        dtype: DT_INT32
        tensor_shape {
        }
      }
    }
  }
}
node {
  name: "encoder_1/conv1d_1_2/Reshape/ReadVariableOp/resource"
  op: "Const"
  attr {
    key: "dtype"
    value {
      type: DT_FLOAT
    }
  }
  attr {
    key: "value"
    value {
      tensor {
        dtype: DT_FLOAT
        tensor_shape {
          dim {
            size: 32
          }
        }
        tensor_content: "…"
      }
    }
  }
}
node {
  name: "encoder_1/conv1d_1_2/Reshape/shape"
  op: "Const"
  attr {
    key: "dtype"
    value {
      type: DT_INT32
    }
  }
  attr {
    key: "value"
    value {
      tensor {
        dtype: DT_INT32
        tensor_shape {
          dim {
            size: 3
          }
        }
        tensor_content: "\001\000\000\000\001\000\000\000 \000\000\000"
      }
    }
  }
}
node {
  name: "encoder_1/conv1d_2_1/convolution/ExpandDims/dim"
  op: "Const"
  attr {
    key: "dtype"
    value {
      type: DT_INT32
    }
  }
  attr {
    key: "value"
    value {
      tensor {
        dtype: DT_INT32
        tensor_shape {
        }
        int_val: -3
      }
    }
  }
}
node {
  name: "encoder_1/conv1d_2_1/convolution/ExpandDims_1/ReadVariableOp/resource"
  op: "Const"
  attr {
    key: "dtype"
    value {
      type: DT_FLOAT
    }
  }
  attr {
    key: "value"
    value {
      tensor {
        dtype: DT_FLOAT
        tensor_shape {
          dim {
            size: 3
          }
          dim {
            size: 32
          }
          dim {
            size: 32
          }
        }
        tensor_content: "…"
      }
    }
  }
}
node {
  name: "encoder_1/conv1d_2_1/convolution/ExpandDims_1/dim"
  op: "Const"
  attr {
    key: "dtype"
    value {
      type: DT_INT32
    }
  }
  attr {
    key: "value"
    value {
      tensor {
        dtype: DT_INT32
        tensor_shape {
        }
      }
    }
  }
}
node {
  name: "encoder_1/conv1d_2_1/Reshape/ReadVariableOp/resource"
  op: "Const"
  attr {
    key: "dtype"
    value {
      type: DT_FLOAT
    }
  }
  attr {
    key: "value"
    value {
      tensor {
        dtype: DT_FLOAT
        tensor_shape {
          dim {
            size: 32
          }
        }
        tensor_content: "…"
      }
    }
  }
}
node {
  name: "encoder_1/conv1d_2_1/Reshape/shape"
  op: "Const"
  attr {
    key: "dtype"
    value {
      type: DT_INT32
    }
  }
  attr {
    key: "value"
    value {
      tensor {
        dtype: DT_INT32
        tensor_shape {
          dim {
            size: 3
          }
        }
        tensor_content: "\001\000\000\000\001\000\000\000 \000\000\000"
      }
    }
  }
}
node {
  name: "encoder_1/conv1d_3_1/convolution/ExpandDims/dim"
  op: "Const"
  attr {
    key: "dtype"
    value {
      type: DT_INT32
    }
  }
  attr {
    key: "value"
    value {
      tensor {
        dtype: DT_INT32
        tensor_shape {
        }
        int_val: -3
      }
    }
  }
}
node {
  name: "encoder_1/conv1d_3_1/convolution/ExpandDims_1/ReadVariableOp/resource"
  op: "Const"
  attr {
    key: "dtype"
    value {
      type: DT_FLOAT
    }
  }
  attr {
    key: "value"
    value {
      tensor {
        dtype: DT_FLOAT
        tensor_shape {
          dim {
            size: 3
          }
          dim {
            size: 32
          }
          dim {
            size: 64
          }
        }
        tensor_content: "…"
      }
    }
  }
}
node {
  name: "encoder_1/conv1d_3_1/convolution/ExpandDims_1/dim"
  op: "Const"
  attr {
    key: "dtype"
    value {
      type: DT_INT32
    }
  }
  attr {
    key: "value"
    value {
      tensor {
        dtype: DT_INT32
        tensor_shape {
        }
      }
    }
  }
}
node {
  name: "encoder_1/conv1d_3_1/Reshape/ReadVariableOp/resource"
  op: "Const"
  attr {
    key: "dtype"
    value {
      type: DT_FLOAT
    }
  }
  attr {
    key: "value"
    value {
      tensor {
        dtype: DT_FLOAT
        tensor_shape {
          dim {
            size: 64
          }
        }
        tensor_content: "…"
      }
    }
  }
}
node {
  name: "encoder_1/conv1d_3_1/Reshape/shape"
  op: "Const"
  attr {
    key: "dtype"
    value {
      type: DT_INT32
    }
  }
  attr {
    key: "value"
    value {
      tensor {
        dtype: DT_INT32
        tensor_shape {
          dim {
            size: 3
          }
        }
        tensor_content: "\001\000\000\000\001\000\000\000@\000\000\000"
      }
    }
  }
}
node {
  name: "encoder_1/flatten_1/Reshape/shape"
  op: "Const"
  attr {
    key: "dtype"
    value {
      type: DT_INT32
    }
  }
  attr {
    key: "value"
    value {
      tensor {
        dtype: DT_INT32
        tensor_shape {
          dim {
            size: 2
          }
        }
        tensor_content: "\377\377\377\377\300\003\000\000"
      }
    }
  }
}
node {
  name: "encoder_1/z_mean_1/Cast/ReadVariableOp/resource"
  op: "Const"
  attr {
    key: "dtype"
    value {
      type: DT_FLOAT
    }
  }
  attr {
    key: "value"
    value {
      tensor {
        dtype: DT_FLOAT
        tensor_shape {
          dim {
            size: 960
          }
          dim {
            size: 16
          }
        }
        tensor_content: "…"
      }
    }
  }
}
node {
  name: "encoder_1/z_mean_1/BiasAdd/ReadVariableOp/resource"
  op: "Const"
  attr {
    key: "dtype"
    value {
      type: DT_FLOAT
    }
  }
  attr {
    key: "value"
    value {
      tensor {
        dtype: DT_FLOAT
        tensor_shape {
          dim {
            size: 16
          }
        }
        tensor_content: "…"
      }
    }
  }
}
node {
  name: "encoder_1/z_log_var_1/BiasAdd/ReadVariableOp/resource"
  op: "Const"
  attr {
    key: "dtype"
    value {
      type: DT_FLOAT
    }
  }
  attr {
    key: "value"
    value {
      tensor {
        dtype: DT_FLOAT
        tensor_shape {
          dim {
            size: 16
          }
        }
        tensor_content: "…"
      }
    }
  }
}
node {
  name: "encoder_1/z_log_var_1/Cast/ReadVariableOp/resource"
  op: "Const"
  attr {
    key: "dtype"
    value {
      type: DT_FLOAT
    }
  }
  attr {
    key: "value"
    value {
      tensor {
        dtype: DT_FLOAT
        tensor_shape {
          dim {
            size: 960
          }
          dim {
            size: 16
          }
        }
        tensor_content: "…"
      }
    }
  }
}
node {
  name: "encoder_1/conv1d_1/convolution/ExpandDims"
  op: "ExpandDims"
  input: "x1"
  input: "encoder_1/conv1d_1/convolution/ExpandDims/dim"
  attr {
    key: "T"
    value {
      type: DT_FLOAT
    }
  }
  attr {
    key: "Tdim"
    value {
      type: DT_INT32
    }
  }
}
node {
  name: "encoder_1/conv1d_1/convolution/ExpandDims_1/ReadVariableOp"
  op: "Identity"
  input: "encoder_1/conv1d_1/convolution/ExpandDims_1/ReadVariableOp/resource"
  attr {
    key: "T"
    value {
      type: DT_FLOAT
    }
  }
  attr {
    key: "_has_manual_control_dependencies"
    value {
      b: true
    }
  }
}
node {
  name: "encoder_1/conv1d_1/convolution/ExpandDims_1"
  op: "ExpandDims"
  input: "encoder_1/conv1d_1/convolution/ExpandDims_1/ReadVariableOp"
  input: "encoder_1/conv1d_1/convolution/ExpandDims_1/dim"
  attr {
    key: "T"
    value {
      type: DT_FLOAT
    }
  }
  attr {
    key: "Tdim"
    value {
      type: DT_INT32
    }
  }
}
node {
  name: "encoder_1/conv1d_1/convolution"
  op: "Conv2D"
  input: "encoder_1/conv1d_1/convolution/ExpandDims"
  input: "encoder_1/conv1d_1/convolution/ExpandDims_1"
  attr {
    key: "T"
    value {
      type: DT_FLOAT
    }
  }
  attr {
    key: "data_format"
    value {
      s: "NHWC"
    }
  }
  attr {
    key: "dilations"
    value {
      list {
        i: 1
        i: 1
        i: 1
        i: 1
      }
    }
  }
  attr {
    key: "explicit_paddings"
    value {
      list {
      }
    }
  }
  attr {
    key: "padding"
    value {
      s: "SAME"
    }
  }
  attr {
    key: "strides"
    value {
      list {
        i: 1
        i: 1
        i: 2
        i: 1
      }
    }
  }
  attr {
    key: "use_cudnn_on_gpu"
    value {
      b: true
    }
  }
}
node {
  name: "encoder_1/conv1d_1/convolution/Squeeze"
  op: "Squeeze"
  input: "encoder_1/conv1d_1/convolution"
  attr {
    key: "T"
    value {
      type: DT_FLOAT
    }
  }
  attr {
    key: "squeeze_dims"
    value {
      list {
        i: -3
      }
    }
  }
}
node {
  name: "encoder_1/conv1d_1/Reshape/ReadVariableOp"
  op: "Identity"
  input: "encoder_1/conv1d_1/Reshape/ReadVariableOp/resource"
  attr {
    key: "T"
    value {
      type: DT_FLOAT
    }
  }
  attr {
    key: "_has_manual_control_dependencies"
    value {
      b: true
    }
  }
}
node {
  name: "encoder_1/conv1d_1/Reshape"
  op: "Reshape"
  input: "encoder_1/conv1d_1/Reshape/ReadVariableOp"
  input: "encoder_1/conv1d_1/Reshape/shape"
  attr {
    key: "T"
    value {
      type: DT_FLOAT
    }
  }
  attr {
    key: "Tshape"
    value {
      type: DT_INT32
    }
  }
}
node {
  name: "encoder_1/conv1d_1/Squeeze"
  op: "Squeeze"
  input: "encoder_1/conv1d_1/Reshape"
  attr {
    key: "T"
    value {
      type: DT_FLOAT
    }
  }
  attr {
    key: "squeeze_dims"
    value {
      list {
      }
    }
  }
}
node {
  name: "encoder_1/conv1d_1/BiasAdd"
  op: "BiasAdd"
  input: "encoder_1/conv1d_1/convolution/Squeeze"
  input: "encoder_1/conv1d_1/Squeeze"
  attr {
    key: "T"
    value {
      type: DT_FLOAT
    }
  }
  attr {
    key: "data_format"
    value {
      s: "NHWC"
    }
  }
}
node {
  name: "encoder_1/leaky_re_lu_1/LeakyRelu"
  op: "LeakyRelu"
  input: "encoder_1/conv1d_1/BiasAdd"
  attr {
    key: "T"
    value {
      type: DT_FLOAT
    }
  }
  attr {
    key: "alpha"
    value {
      f: 0.30000001192092896
    }
  }
}
node {
  name: "encoder_1/conv1d_1_2/convolution/ExpandDims"
  op: "ExpandDims"
  input: "encoder_1/leaky_re_lu_1/LeakyRelu"
  input: "encoder_1/conv1d_1_2/convolution/ExpandDims/dim"
  attr {
    key: "T"
    value {
      type: DT_FLOAT
    }
  }
  attr {
    key: "Tdim"
    value {
      type: DT_INT32
    }
  }
}
node {
  name: "encoder_1/conv1d_1_2/convolution/ExpandDims_1/ReadVariableOp"
  op: "Identity"
  input: "encoder_1/conv1d_1_2/convolution/ExpandDims_1/ReadVariableOp/resource"
  attr {
    key: "T"
    value {
      type: DT_FLOAT
    }
  }
  attr {
    key: "_has_manual_control_dependencies"
    value {
      b: true
    }
  }
}
node {
  name: "encoder_1/conv1d_1_2/convolution/ExpandDims_1"
  op: "ExpandDims"
  input: "encoder_1/conv1d_1_2/convolution/ExpandDims_1/ReadVariableOp"
  input: "encoder_1/conv1d_1_2/convolution/ExpandDims_1/dim"
  attr {
    key: "T"
    value {
      type: DT_FLOAT
    }
  }
  attr {
    key: "Tdim"
    value {
      type: DT_INT32
    }
  }
}
node {
  name: "encoder_1/conv1d_1_2/convolution"
  op: "Conv2D"
  input: "encoder_1/conv1d_1_2/convolution/ExpandDims"
  input: "encoder_1/conv1d_1_2/convolution/ExpandDims_1"
  attr {
    key: "T"
    value {
      type: DT_FLOAT
    }
  }
  attr {
    key: "data_format"
    value {
      s: "NHWC"
    }
  }
  attr {
    key: "dilations"
    value {
      list {
        i: 1
        i: 1
        i: 1
        i: 1
      }
    }
  }
  attr {
    key: "explicit_paddings"
    value {
      list {
      }
    }
  }
  attr {
    key: "padding"
    value {
      s: "SAME"
    }
  }
  attr {
    key: "strides"
    value {
      list {
        i: 1
        i: 1
        i: 2
        i: 1
      }
    }
  }
  attr {
    key: "use_cudnn_on_gpu"
    value {
      b: true
    }
  }
}
node {
  name: "encoder_1/conv1d_1_2/convolution/Squeeze"
  op: "Squeeze"
  input: "encoder_1/conv1d_1_2/convolution"
  attr {
    key: "T"
    value {
      type: DT_FLOAT
    }
  }
  attr {
    key: "squeeze_dims"
    value {
      list {
        i: -3
      }
    }
  }
}
node {
  name: "encoder_1/conv1d_1_2/Reshape/ReadVariableOp"
  op: "Identity"
  input: "encoder_1/conv1d_1_2/Reshape/ReadVariableOp/resource"
  attr {
    key: "T"
    value {
      type: DT_FLOAT
    }
  }
  attr {
    key: "_has_manual_control_dependencies"
    value {
      b: true
    }
  }
}
node {
  name: "encoder_1/conv1d_1_2/Reshape"
  op: "Reshape"
  input: "encoder_1/conv1d_1_2/Reshape/ReadVariableOp"
  input: "encoder_1/conv1d_1_2/Reshape/shape"
  attr {
    key: "T"
    value {
      type: DT_FLOAT
    }
  }
  attr {
    key: "Tshape"
    value {
      type: DT_INT32
    }
  }
}
node {
  name: "encoder_1/conv1d_1_2/Squeeze"
  op: "Squeeze"
  input: "encoder_1/conv1d_1_2/Reshape"
  attr {
    key: "T"
    value {
      type: DT_FLOAT
    }
  }
  attr {
    key: "squeeze_dims"
    value {
      list {
      }
    }
  }
}
node {
  name: "encoder_1/conv1d_1_2/BiasAdd"
  op: "BiasAdd"
  input: "encoder_1/conv1d_1_2/convolution/Squeeze"
  input: "encoder_1/conv1d_1_2/Squeeze"
  attr {
    key: "T"
    value {
      type: DT_FLOAT
    }
  }
  attr {
    key: "data_format"
    value {
      s: "NHWC"
    }
  }
}
node {
  name: "encoder_1/leaky_re_lu_1_2/LeakyRelu"
  op: "LeakyRelu"
  input: "encoder_1/conv1d_1_2/BiasAdd"
  attr {
    key: "T"
    value {
      type: DT_FLOAT
    }
  }
  attr {
    key: "alpha"
    value {
      f: 0.30000001192092896
    }
  }
}
node {
  name: "encoder_1/conv1d_2_1/convolution/ExpandDims"
  op: "ExpandDims"
  input: "encoder_1/leaky_re_lu_1_2/LeakyRelu"
  input: "encoder_1/conv1d_2_1/convolution/ExpandDims/dim"
  attr {
    key: "T"
    value {
      type: DT_FLOAT
    }
  }
  attr {
    key: "Tdim"
    value {
      type: DT_INT32
    }
  }
}
node {
  name: "encoder_1/conv1d_2_1/convolution/ExpandDims_1/ReadVariableOp"
  op: "Identity"
  input: "encoder_1/conv1d_2_1/convolution/ExpandDims_1/ReadVariableOp/resource"
  attr {
    key: "T"
    value {
      type: DT_FLOAT
    }
  }
  attr {
    key: "_has_manual_control_dependencies"
    value {
      b: true
    }
  }
}
node {
  name: "encoder_1/conv1d_2_1/convolution/ExpandDims_1"
  op: "ExpandDims"
  input: "encoder_1/conv1d_2_1/convolution/ExpandDims_1/ReadVariableOp"
  input: "encoder_1/conv1d_2_1/convolution/ExpandDims_1/dim"
  attr {
    key: "T"
    value {
      type: DT_FLOAT
    }
  }
  attr {
    key: "Tdim"
    value {
      type: DT_INT32
    }
  }
}
node {
  name: "encoder_1/conv1d_2_1/convolution"
  op: "Conv2D"
  input: "encoder_1/conv1d_2_1/convolution/ExpandDims"
  input: "encoder_1/conv1d_2_1/convolution/ExpandDims_1"
  attr {
    key: "T"
    value {
      type: DT_FLOAT
    }
  }
  attr {
    key: "data_format"
    value {
      s: "NHWC"
    }
  }
  attr {
    key: "dilations"
    value {
      list {
        i: 1
        i: 1
        i: 1
        i: 1
      }
    }
  }
  attr {
    key: "explicit_paddings"
    value {
      list {
      }
    }
  }
  attr {
    key: "padding"
    value {
      s: "SAME"
    }
  }
  attr {
    key: "strides"
    value {
      list {
        i: 1
        i: 1
        i: 2
        i: 1
      }
    }
  }
  attr {
    key: "use_cudnn_on_gpu"
    value {
      b: true
    }
  }
}
node {
  name: "encoder_1/conv1d_2_1/convolution/Squeeze"
  op: "Squeeze"
  input: "encoder_1/conv1d_2_1/convolution"
  attr {
    key: "T"
    value {
      type: DT_FLOAT
    }
  }
  attr {
    key: "squeeze_dims"
    value {
      list {
        i: -3
      }
    }
  }
}
node {
  name: "encoder_1/conv1d_2_1/Reshape/ReadVariableOp"
  op: "Identity"
  input: "encoder_1/conv1d_2_1/Reshape/ReadVariableOp/resource"
  attr {
    key: "T"
    value {
      type: DT_FLOAT
    }
  }
  attr {
    key: "_has_manual_control_dependencies"
    value {
      b: true
    }
  }
}
node {
  name: "encoder_1/conv1d_2_1/Reshape"
  op: "Reshape"
  input: "encoder_1/conv1d_2_1/Reshape/ReadVariableOp"
  input: "encoder_1/conv1d_2_1/Reshape/shape"
  attr {
    key: "T"
    value {
      type: DT_FLOAT
    }
  }
  attr {
    key: "Tshape"
    value {
      type: DT_INT32
    }
  }
}
node {
  name: "encoder_1/conv1d_2_1/Squeeze"
  op: "Squeeze"
  input: "encoder_1/conv1d_2_1/Reshape"
  attr {
    key: "T"
    value {
      type: DT_FLOAT
    }
  }
  attr {
    key: "squeeze_dims"
    value {
      list {
      }
    }
  }
}
node {
  name: "encoder_1/conv1d_2_1/BiasAdd"
  op: "BiasAdd"
  input: "encoder_1/conv1d_2_1/convolution/Squeeze"
  input: "encoder_1/conv1d_2_1/Squeeze"
  attr {
    key: "T"
    value {
      type: DT_FLOAT
    }
  }
  attr {
    key: "data_format"
    value {
      s: "NHWC"
    }
  }
}
node {
  name: "encoder_1/leaky_re_lu_2_1/LeakyRelu"
  op: "LeakyRelu"
  input: "encoder_1/conv1d_2_1/BiasAdd"
  attr {
    key: "T"
    value {
      type: DT_FLOAT
    }
  }
  attr {
    key: "alpha"
    value {
      f: 0.30000001192092896
    }
  }
}
node {
  name: "encoder_1/conv1d_3_1/convolution/ExpandDims"
  op: "ExpandDims"
  input: "encoder_1/leaky_re_lu_2_1/LeakyRelu"
  input: "encoder_1/conv1d_3_1/convolution/ExpandDims/dim"
  attr {
    key: "T"
    value {
      type: DT_FLOAT
    }
  }
  attr {
    key: "Tdim"
    value {
      type: DT_INT32
    }
  }
}
node {
  name: "encoder_1/conv1d_3_1/convolution/ExpandDims_1/ReadVariableOp"
  op: "Identity"
  input: "encoder_1/conv1d_3_1/convolution/ExpandDims_1/ReadVariableOp/resource"
  attr {
    key: "T"
    value {
      type: DT_FLOAT
    }
  }
  attr {
    key: "_has_manual_control_dependencies"
    value {
      b: true
    }
  }
}
node {
  name: "encoder_1/conv1d_3_1/convolution/ExpandDims_1"
  op: "ExpandDims"
  input: "encoder_1/conv1d_3_1/convolution/ExpandDims_1/ReadVariableOp"
  input: "encoder_1/conv1d_3_1/convolution/ExpandDims_1/dim"
  attr {
    key: "T"
    value {
      type: DT_FLOAT
    }
  }
  attr {
    key: "Tdim"
    value {
      type: DT_INT32
    }
  }
}
node {
  name: "encoder_1/conv1d_3_1/convolution"
  op: "Conv2D"
  input: "encoder_1/conv1d_3_1/convolution/ExpandDims"
  input: "encoder_1/conv1d_3_1/convolution/ExpandDims_1"
  attr {
    key: "T"
    value {
      type: DT_FLOAT
    }
  }
  attr {
    key: "data_format"
    value {
      s: "NHWC"
    }
  }
  attr {
    key: "dilations"
    value {
      list {
        i: 1
        i: 1
        i: 1
        i: 1
      }
    }
  }
  attr {
    key: "explicit_paddings"
    value {
      list {
      }
    }
  }
  attr {
    key: "padding"
    value {
      s: "SAME"
    }
  }
  attr {
    key: "strides"
    value {
      list {
        i: 1
        i: 1
        i: 2
        i: 1
      }
    }
  }
  attr {
    key: "use_cudnn_on_gpu"
    value {
      b: true
    }
  }
}
node {
  name: "encoder_1/conv1d_3_1/convolution/Squeeze"
  op: "Squeeze"
  input: "encoder_1/conv1d_3_1/convolution"
  attr {
    key: "T"
    value {
      type: DT_FLOAT
    }
  }
  attr {
    key: "squeeze_dims"
    value {
      list {
        i: -3
      }
    }
  }
}
node {
  name: "encoder_1/conv1d_3_1/Reshape/ReadVariableOp"
  op: "Identity"
  input: "encoder_1/conv1d_3_1/Reshape/ReadVariableOp/resource"
  attr {
    key: "T"
    value {
      type: DT_FLOAT
    }
  }
  attr {
    key: "_has_manual_control_dependencies"
    value {
      b: true
    }
  }
}
node {
  name: "encoder_1/conv1d_3_1/Reshape"
  op: "Reshape"
  input: "encoder_1/conv1d_3_1/Reshape/ReadVariableOp"
  input: "encoder_1/conv1d_3_1/Reshape/shape"
  attr {
    key: "T"
    value {
      type: DT_FLOAT
    }
  }
  attr {
    key: "Tshape"
    value {
      type: DT_INT32
    }
  }
}
node {
  name: "encoder_1/conv1d_3_1/Squeeze"
  op: "Squeeze"
  input: "encoder_1/conv1d_3_1/Reshape"
  attr {
    key: "T"
    value {
      type: DT_FLOAT
    }
  }
  attr {
    key: "squeeze_dims"
    value {
      list {
      }
    }
  }
}
node {
  name: "encoder_1/conv1d_3_1/BiasAdd"
  op: "BiasAdd"
  input: "encoder_1/conv1d_3_1/convolution/Squeeze"
  input: "encoder_1/conv1d_3_1/Squeeze"
  attr {
    key: "T"
    value {
      type: DT_FLOAT
    }
  }
  attr {
    key: "data_format"
    value {
      s: "NHWC"
    }
  }
}
node {
  name: "encoder_1/leaky_re_lu_3_1/LeakyRelu"
  op: "LeakyRelu"
  input: "encoder_1/conv1d_3_1/BiasAdd"
  attr {
    key: "T"
    value {
      type: DT_FLOAT
    }
  }
  attr {
    key: "alpha"
    value {
      f: 0.30000001192092896
    }
  }
}
node {
  name: "encoder_1/flatten_1/Reshape"
  op: "Reshape"
  input: "encoder_1/leaky_re_lu_3_1/LeakyRelu"
  input: "encoder_1/flatten_1/Reshape/shape"
  attr {
    key: "T"
    value {
      type: DT_FLOAT
    }
  }
  attr {
    key: "Tshape"
    value {
      type: DT_INT32
    }
  }
}
node {
  name: "encoder_1/z_mean_1/Cast/ReadVariableOp"
  op: "Identity"
  input: "encoder_1/z_mean_1/Cast/ReadVariableOp/resource"
  attr {
    key: "T"
    value {
      type: DT_FLOAT
    }
  }
  attr {
    key: "_has_manual_control_dependencies"
    value {
      b: true
    }
  }
}
node {
  name: "encoder_1/z_mean_1/MatMul"
  op: "MatMul"
  input: "encoder_1/flatten_1/Reshape"
  input: "encoder_1/z_mean_1/Cast/ReadVariableOp"
  attr {
    key: "T"
    value {
      type: DT_FLOAT
    }
  }
  attr {
    key: "grad_a"
    value {
      b: false
    }
  }
  attr {
    key: "grad_b"
    value {
      b: false
    }
  }
  attr {
    key: "transpose_a"
    value {
      b: false
    }
  }
  attr {
    key: "transpose_b"
    value {
      b: false
    }
  }
}
node {
  name: "encoder_1/z_mean_1/BiasAdd/ReadVariableOp"
  op: "Identity"
  input: "encoder_1/z_mean_1/BiasAdd/ReadVariableOp/resource"
  attr {
    key: "T"
    value {
      type: DT_FLOAT
    }
  }
  attr {
    key: "_has_manual_control_dependencies"
    value {
      b: true
    }
  }
}
node {
  name: "encoder_1/z_mean_1/BiasAdd"
  op: "BiasAdd"
  input: "encoder_1/z_mean_1/MatMul"
  input: "encoder_1/z_mean_1/BiasAdd/ReadVariableOp"
  attr {
    key: "T"
    value {
      type: DT_FLOAT
    }
  }
  attr {
    key: "data_format"
    value {
      s: "NHWC"
    }
  }
}
node {
  name: "encoder_1/z_log_var_1/BiasAdd/ReadVariableOp"
  op: "Identity"
  input: "encoder_1/z_log_var_1/BiasAdd/ReadVariableOp/resource"
  attr {
    key: "T"
    value {
      type: DT_FLOAT
    }
  }
  attr {
    key: "_has_manual_control_dependencies"
    value {
      b: true
    }
  }
}
node {
  name: "encoder_1/z_log_var_1/Cast/ReadVariableOp"
  op: "Identity"
  input: "encoder_1/z_log_var_1/Cast/ReadVariableOp/resource"
  attr {
    key: "T"
    value {
      type: DT_FLOAT
    }
  }
  attr {
    key: "_has_manual_control_dependencies"
    value {
      b: true
    }
  }
}
node {
  name: "NoOp"
  op: "NoOp"
  input: "^encoder_1/conv1d_1/Reshape/ReadVariableOp"
  input: "^encoder_1/conv1d_1/convolution/ExpandDims_1/ReadVariableOp"
  input: "^encoder_1/conv1d_1_2/Reshape/ReadVariableOp"
  input: "^encoder_1/conv1d_1_2/convolution/ExpandDims_1/ReadVariableOp"
  input: "^encoder_1/conv1d_2_1/Reshape/ReadVariableOp"
  input: "^encoder_1/conv1d_2_1/convolution/ExpandDims_1/ReadVariableOp"
  input: "^encoder_1/conv1d_3_1/Reshape/ReadVariableOp"
  input: "^encoder_1/conv1d_3_1/convolution/ExpandDims_1/ReadVariableOp"
  input: "^encoder_1/z_log_var_1/BiasAdd/ReadVariableOp"
  input: "^encoder_1/z_log_var_1/Cast/ReadVariableOp"
  input: "^encoder_1/z_mean_1/BiasAdd/ReadVariableOp"
  input: "^encoder_1/z_mean_1/Cast/ReadVariableOp"
  attr {
    key: "_has_manual_control_dependencies"
    value {
      b: true
    }
  }
}
node {
  name: "Identity"
  op: "Identity"
  input: "encoder_1/z_mean_1/BiasAdd"
  input: "^NoOp"
  attr {
    key: "T"
    value {
      type: DT_FLOAT
    }
  }
}
node {
  name: "encoder_1/z_log_var_1/MatMul"
  op: "MatMul"
  input: "encoder_1/flatten_1/Reshape"
  input: "encoder_1/z_log_var_1/Cast/ReadVariableOp"
  attr {
    key: "T"
    value {
      type: DT_FLOAT
    }
  }
  attr {
    key: "grad_a"
    value {
      b: false
    }
  }
  attr {
    key: "grad_b"
    value {
      b: false
    }
  }
  attr {
    key: "transpose_a"
    value {
      b: false
    }
  }
  attr {
    key: "transpose_b"
    value {
      b: false
    }
  }
}
node {
  name: "encoder_1/z_log_var_1/BiasAdd"
  op: "BiasAdd"
  input: "encoder_1/z_log_var_1/MatMul"
  input: "encoder_1/z_log_var_1/BiasAdd/ReadVariableOp"
  attr {
    key: "T"
    value {
      type: DT_FLOAT
    }
  }
  attr {
    key: "data_format"
    value {
      s: "NHWC"
    }
  }
}
node {
  name: "Identity_1"
  op: "Identity"
  input: "encoder_1/z_log_var_1/BiasAdd"
  input: "^NoOp"
  attr {
    key: "T"
    value {
      type: DT_FLOAT
    }
  }
}
versions {
  producer: 1882
}
